…
data_dir : ./data
tasks : ['TSD', 'SSD', 'WS24_water', 'WS24_water4', 'WS24_acid', 'WS24_base', 'WS24_boiling']
task_types : ['regression', 'classification', 'classification', 'classification_4', 'classification', 'classification', 'classification']
dl_sampler : random
loss_aggregation : fixed_weight_sum
model_cfg : att_cgcnn
max_graph_len : 200
reconstruct : False
task_cfg : tsd_ssd_ws24
pruning : False
optuna_name : optuna
dataset_cls : <class 'CGCNN_MT.datamodule.dataset.LoadGraphData'>
orig_extra_fea_len : 6
orig_atom_fea_len : 92
nbr_fea_len : 41
model : CrystalGraphConvNet(
  (embedding_atom): Linear(in_features=92, out_features=32, bias=True)
  (embedding_atom_norm): LayerNorm((32,), eps=1e-05, elementwise_affine=True)
  (convs): ModuleList(
    (0-1): 2 x ConvLayer(
      (fc_full): Linear(in_features=105, out_features=64, bias=True)
      (sigmoid): Sigmoid()
      (softplus1): Softplus(beta=1.0, threshold=20.0)
      (bn1): BatchNorm1d(64, eps=1e-05, momentum=0.1, affine=True, track_running_stats=True)
      (bn2): BatchNorm1d(32, eps=1e-05, momentum=0.1, affine=True, track_running_stats=True)
      (softplus2): Softplus(beta=1.0, threshold=20.0)
    )
  )
  (embedding_extra): Linear(in_features=6, out_features=40, bias=True)
  (embedding_extra_norm): BatchNorm1d(40, eps=1e-05, momentum=0.1, affine=True, track_running_stats=True)
  (embedding_extra_softplus): Softplus(beta=1.0, threshold=20.0)
  (conv_to_fc): Linear(in_features=72, out_features=208, bias=True)
  (conv_to_fc_norm): BatchNorm1d(208, eps=1e-05, momentum=0.1, affine=True, track_running_stats=True)
  (conv_to_fc_softplus): Softplus(beta=1.0, threshold=20.0)
  (dropout): Dropout(p=0.15000000000000002, inplace=False)
  (fc_outs): ModuleList(
    (0): OutputLayer(
      (fc): Linear(in_features=208, out_features=1, bias=True)
    )
    (1-2): 2 x OutputLayer(
      (fc): Sequential(
        (0): Linear(in_features=208, out_features=2, bias=True)
        (1): LogSoftmax(dim=1)
      )
    )
    (3): OutputLayer(
      (fc): Sequential(
        (0): Linear(in_features=208, out_features=4, bias=True)
        (1): LogSoftmax(dim=1)
      )
    )
    (4-6): 3 x OutputLayer(
      (fc): Sequential(
        (0): Linear(in_features=208, out_features=2, bias=True)
        (1): LogSoftmax(dim=1)
      )
    )
  )
  (task_norms): ModuleList(
    (0-6): 7 x LayerNorm((208,), eps=1e-05, elementwise_affine=True)
  )
  (task_attentions): ModuleList(
    (0-6): 7 x SelfAttention(
      (query): Linear(in_features=208, out_features=208, bias=True)
      (key): Linear(in_features=208, out_features=208, bias=True)
      (value): Linear(in_features=208, out_features=208, bias=True)
      (softmax): Softmax(dim=-1)
    )
  )
)
normalizers : [<CGCNN_MT.datamodule.data_interface.Normalizer object at 0x7a8fa4849d60>, <CGCNN_MT.datamodule.data_interface.Normalizer object at 0x7a8fa4849b50>, <CGCNN_MT.datamodule.data_interface.Normalizer object at 0x7a8fa4849f40>, <CGCNN_MT.datamodule.data_interface.Normalizer object at 0x7a8fa4849fa0>, <CGCNN_MT.datamodule.data_interface.Normalizer object at 0x7a8fa48490d0>, <CGCNN_MT.datamodule.data_interface.Normalizer object at 0x7a8fa48496a0>, <CGCNN_MT.datamodule.data_interface.Normalizer object at 0x7a8fa4849130>]
…
data_dir : ./data
tasks : ['TSD', 'SSD', 'WS24_water', 'WS24_water4', 'WS24_acid', 'WS24_base', 'WS24_boiling']
task_types : ['regression', 'classification', 'classification', 'classification_4', 'classification', 'classification', 'classification']
dl_sampler : random
loss_aggregation : fixed_weight_sum
model_cfg : att_cgcnn
max_graph_len : 200
reconstruct : False
task_cfg : tsd_ssd_ws24
pruning : False
optuna_name : optuna
dataset_cls : <class 'CGCNN_MT.datamodule.dataset.LoadGraphData'>
orig_extra_fea_len : 6
orig_atom_fea_len : 92
nbr_fea_len : 41
model : CrystalGraphConvNet(
  (embedding_atom): Linear(in_features=92, out_features=48, bias=True)
  (embedding_atom_norm): LayerNorm((48,), eps=1e-05, elementwise_affine=True)
  (convs): ModuleList(
    (0-3): 4 x ConvLayer(
      (fc_full): Linear(in_features=137, out_features=96, bias=True)
      (sigmoid): Sigmoid()
      (softplus1): Softplus(beta=1.0, threshold=20.0)
      (bn1): BatchNorm1d(96, eps=1e-05, momentum=0.1, affine=True, track_running_stats=True)
      (bn2): BatchNorm1d(48, eps=1e-05, momentum=0.1, affine=True, track_running_stats=True)
      (softplus2): Softplus(beta=1.0, threshold=20.0)
    )
  )
  (embedding_extra): Linear(in_features=6, out_features=52, bias=True)
  (embedding_extra_norm): BatchNorm1d(52, eps=1e-05, momentum=0.1, affine=True, track_running_stats=True)
  (embedding_extra_softplus): Softplus(beta=1.0, threshold=20.0)
  (conv_to_fc): Linear(in_features=100, out_features=96, bias=True)
  (conv_to_fc_norm): BatchNorm1d(96, eps=1e-05, momentum=0.1, affine=True, track_running_stats=True)
  (conv_to_fc_softplus): Softplus(beta=1.0, threshold=20.0)
  (dropout): Dropout(p=0.75, inplace=False)
  (fcs): ModuleList(
    (0-4): 5 x Linear(in_features=96, out_features=96, bias=True)
  )
  (norms): ModuleList(
    (0-4): 5 x BatchNorm1d(96, eps=1e-05, momentum=0.1, affine=True, track_running_stats=True)
  )
  (softpluses): ModuleList(
    (0-4): 5 x Softplus(beta=1.0, threshold=20.0)
  )
  (fc_outs): ModuleList(
    (0): OutputLayer(
      (fc): Linear(in_features=96, out_features=1, bias=True)
    )
    (1-2): 2 x OutputLayer(
      (fc): Sequential(
        (0): Linear(in_features=96, out_features=2, bias=True)
        (1): LogSoftmax(dim=1)
      )
    )
    (3): OutputLayer(
      (fc): Sequential(
        (0): Linear(in_features=96, out_features=4, bias=True)
        (1): LogSoftmax(dim=1)
      )
    )
    (4-6): 3 x OutputLayer(
      (fc): Sequential(
        (0): Linear(in_features=96, out_features=2, bias=True)
        (1): LogSoftmax(dim=1)
      )
    )
  )
  (task_norms): ModuleList(
    (0-6): 7 x LayerNorm((96,), eps=1e-05, elementwise_affine=True)
  )
  (task_attentions): ModuleList(
    (0-6): 7 x SelfAttention(
      (query): Linear(in_features=96, out_features=96, bias=True)
      (key): Linear(in_features=96, out_features=96, bias=True)
      (value): Linear(in_features=96, out_features=96, bias=True)
      (softmax): Softmax(dim=-1)
    )
  )
)
normalizers : [<CGCNN_MT.datamodule.data_interface.Normalizer object at 0x7a8f9279e580>, <CGCNN_MT.datamodule.data_interface.Normalizer object at 0x7a8f9279e310>, <CGCNN_MT.datamodule.data_interface.Normalizer object at 0x7a8f9279ea00>, <CGCNN_MT.datamodule.data_interface.Normalizer object at 0x7a8f9279ef40>, <CGCNN_MT.datamodule.data_interface.Normalizer object at 0x7a8f9279ed00>, <CGCNN_MT.datamodule.data_interface.Normalizer object at 0x7a8f9279e790>, <CGCNN_MT.datamodule.data_interface.Normalizer object at 0x7a8f9279e1c0>]
…
data_dir : ./data
tasks : ['TSD', 'SSD', 'WS24_water', 'WS24_water4', 'WS24_acid', 'WS24_base', 'WS24_boiling']
task_types : ['regression', 'classification', 'classification', 'classification_4', 'classification', 'classification', 'classification']
dl_sampler : random
loss_aggregation : fixed_weight_sum
model_cfg : att_cgcnn
max_graph_len : 200
reconstruct : False
task_cfg : tsd_ssd_ws24
pruning : False
optuna_name : optuna
dataset_cls : <class 'CGCNN_MT.datamodule.dataset.LoadGraphData'>
orig_extra_fea_len : 6
orig_atom_fea_len : 92
nbr_fea_len : 41
model : CrystalGraphConvNet(
  (embedding_atom): Linear(in_features=92, out_features=176, bias=True)
  (embedding_atom_norm): LayerNorm((176,), eps=1e-05, elementwise_affine=True)
  (convs): ModuleList(
    (0-1): 2 x ConvLayer(
      (fc_full): Linear(in_features=393, out_features=352, bias=True)
      (sigmoid): Sigmoid()
      (softplus1): Softplus(beta=1.0, threshold=20.0)
      (bn1): BatchNorm1d(352, eps=1e-05, momentum=0.1, affine=True, track_running_stats=True)
      (bn2): BatchNorm1d(176, eps=1e-05, momentum=0.1, affine=True, track_running_stats=True)
      (softplus2): Softplus(beta=1.0, threshold=20.0)
    )
  )
  (embedding_extra): Linear(in_features=6, out_features=36, bias=True)
  (embedding_extra_norm): BatchNorm1d(36, eps=1e-05, momentum=0.1, affine=True, track_running_stats=True)
  (embedding_extra_softplus): Softplus(beta=1.0, threshold=20.0)
  (conv_to_fc): Linear(in_features=212, out_features=192, bias=True)
  (conv_to_fc_norm): BatchNorm1d(192, eps=1e-05, momentum=0.1, affine=True, track_running_stats=True)
  (conv_to_fc_softplus): Softplus(beta=1.0, threshold=20.0)
  (dropout): Dropout(p=0.55, inplace=False)
  (fc_outs): ModuleList(
    (0): OutputLayer(
      (fc): Linear(in_features=192, out_features=1, bias=True)
    )
    (1-2): 2 x OutputLayer(
      (fc): Sequential(
        (0): Linear(in_features=192, out_features=2, bias=True)
        (1): LogSoftmax(dim=1)
      )
    )
    (3): OutputLayer(
      (fc): Sequential(
        (0): Linear(in_features=192, out_features=4, bias=True)
        (1): LogSoftmax(dim=1)
      )
    )
    (4-6): 3 x OutputLayer(
      (fc): Sequential(
        (0): Linear(in_features=192, out_features=2, bias=True)
        (1): LogSoftmax(dim=1)
      )
    )
  )
  (task_norms): ModuleList(
    (0-6): 7 x LayerNorm((192,), eps=1e-05, elementwise_affine=True)
  )
  (task_attentions): ModuleList(
    (0-6): 7 x SelfAttention(
      (query): Linear(in_features=192, out_features=192, bias=True)
      (key): Linear(in_features=192, out_features=192, bias=True)
      (value): Linear(in_features=192, out_features=192, bias=True)
      (softmax): Softmax(dim=-1)
    )
  )
)
normalizers : [<CGCNN_MT.datamodule.data_interface.Normalizer object at 0x7a8f92138ca0>, <CGCNN_MT.datamodule.data_interface.Normalizer object at 0x7a8f901b1760>, <CGCNN_MT.datamodule.data_interface.Normalizer object at 0x7a8f901b1eb0>, <CGCNN_MT.datamodule.data_interface.Normalizer object at 0x7a8f901b1220>, <CGCNN_MT.datamodule.data_interface.Normalizer object at 0x7a8f901b1250>, <CGCNN_MT.datamodule.data_interface.Normalizer object at 0x7a8f901b1850>, <CGCNN_MT.datamodule.data_interface.Normalizer object at 0x7a8f901b16a0>]
…
data_dir : ./data
tasks : ['TSD', 'SSD', 'WS24_water', 'WS24_water4', 'WS24_acid', 'WS24_base', 'WS24_boiling']
task_types : ['regression', 'classification', 'classification', 'classification_4', 'classification', 'classification', 'classification']
dl_sampler : random
loss_aggregation : fixed_weight_sum
model_cfg : att_cgcnn
max_graph_len : 200
reconstruct : False
task_cfg : tsd_ssd_ws24
pruning : False
optuna_name : optuna
dataset_cls : <class 'CGCNN_MT.datamodule.dataset.LoadGraphData'>
orig_extra_fea_len : 6
orig_atom_fea_len : 92
nbr_fea_len : 41
model : CrystalGraphConvNet(
  (embedding_atom): Linear(in_features=92, out_features=208, bias=True)
  (embedding_atom_norm): LayerNorm((208,), eps=1e-05, elementwise_affine=True)
  (convs): ModuleList(
    (0-1): 2 x ConvLayer(
      (fc_full): Linear(in_features=457, out_features=416, bias=True)
      (sigmoid): Sigmoid()
      (softplus1): Softplus(beta=1.0, threshold=20.0)
      (bn1): BatchNorm1d(416, eps=1e-05, momentum=0.1, affine=True, track_running_stats=True)
      (bn2): BatchNorm1d(208, eps=1e-05, momentum=0.1, affine=True, track_running_stats=True)
      (softplus2): Softplus(beta=1.0, threshold=20.0)
    )
  )
  (embedding_extra): Linear(in_features=6, out_features=64, bias=True)
  (embedding_extra_norm): BatchNorm1d(64, eps=1e-05, momentum=0.1, affine=True, track_running_stats=True)
  (embedding_extra_softplus): Softplus(beta=1.0, threshold=20.0)
  (conv_to_fc): Linear(in_features=272, out_features=240, bias=True)
  (conv_to_fc_norm): BatchNorm1d(240, eps=1e-05, momentum=0.1, affine=True, track_running_stats=True)
  (conv_to_fc_softplus): Softplus(beta=1.0, threshold=20.0)
  (dropout): Dropout(p=0.7000000000000001, inplace=False)
  (fc_outs): ModuleList(
    (0): OutputLayer(
      (fc): Linear(in_features=240, out_features=1, bias=True)
    )
    (1-2): 2 x OutputLayer(
      (fc): Sequential(
        (0): Linear(in_features=240, out_features=2, bias=True)
        (1): LogSoftmax(dim=1)
      )
    )
    (3): OutputLayer(
      (fc): Sequential(
        (0): Linear(in_features=240, out_features=4, bias=True)
        (1): LogSoftmax(dim=1)
      )
    )
    (4-6): 3 x OutputLayer(
      (fc): Sequential(
        (0): Linear(in_features=240, out_features=2, bias=True)
        (1): LogSoftmax(dim=1)
      )
    )
  )
  (task_norms): ModuleList(
    (0-6): 7 x LayerNorm((240,), eps=1e-05, elementwise_affine=True)
  )
  (task_attentions): ModuleList(
    (0-6): 7 x SelfAttention(
      (query): Linear(in_features=240, out_features=240, bias=True)
      (key): Linear(in_features=240, out_features=240, bias=True)
      (value): Linear(in_features=240, out_features=240, bias=True)
      (softmax): Softmax(dim=-1)
    )
  )
)
normalizers : [<CGCNN_MT.datamodule.data_interface.Normalizer object at 0x7a8f90195790>, <CGCNN_MT.datamodule.data_interface.Normalizer object at 0x7a8f90195e80>, <CGCNN_MT.datamodule.data_interface.Normalizer object at 0x7a8f90195d00>, <CGCNN_MT.datamodule.data_interface.Normalizer object at 0x7a8f901951c0>, <CGCNN_MT.datamodule.data_interface.Normalizer object at 0x7a8f90195520>, <CGCNN_MT.datamodule.data_interface.Normalizer object at 0x7a8f90195310>, <CGCNN_MT.datamodule.data_interface.Normalizer object at 0x7a8f90195be0>]
…
data_dir : ./data
tasks : ['TSD', 'SSD', 'WS24_water', 'WS24_water4', 'WS24_acid', 'WS24_base', 'WS24_boiling']
task_types : ['regression', 'classification', 'classification', 'classification_4', 'classification', 'classification', 'classification']
dl_sampler : random
loss_aggregation : fixed_weight_sum
model_cfg : att_cgcnn
max_graph_len : 200
reconstruct : False
task_cfg : tsd_ssd_ws24
pruning : False
optuna_name : optuna
dataset_cls : <class 'CGCNN_MT.datamodule.dataset.LoadGraphData'>
orig_extra_fea_len : 6
orig_atom_fea_len : 92
nbr_fea_len : 41
model : CrystalGraphConvNet(
  (embedding_atom): Linear(in_features=92, out_features=64, bias=True)
  (embedding_atom_norm): LayerNorm((64,), eps=1e-05, elementwise_affine=True)
  (convs): ModuleList(
    (0-3): 4 x ConvLayer(
      (fc_full): Linear(in_features=169, out_features=128, bias=True)
      (sigmoid): Sigmoid()
      (softplus1): Softplus(beta=1.0, threshold=20.0)
      (bn1): BatchNorm1d(128, eps=1e-05, momentum=0.1, affine=True, track_running_stats=True)
      (bn2): BatchNorm1d(64, eps=1e-05, momentum=0.1, affine=True, track_running_stats=True)
      (softplus2): Softplus(beta=1.0, threshold=20.0)
    )
  )
  (embedding_extra): Linear(in_features=6, out_features=20, bias=True)
  (embedding_extra_norm): BatchNorm1d(20, eps=1e-05, momentum=0.1, affine=True, track_running_stats=True)
  (embedding_extra_softplus): Softplus(beta=1.0, threshold=20.0)
  (conv_to_fc): Linear(in_features=84, out_features=240, bias=True)
  (conv_to_fc_norm): BatchNorm1d(240, eps=1e-05, momentum=0.1, affine=True, track_running_stats=True)
  (conv_to_fc_softplus): Softplus(beta=1.0, threshold=20.0)
  (dropout): Dropout(p=0.4, inplace=False)
  (fc_outs): ModuleList(
    (0): OutputLayer(
      (fc): Linear(in_features=240, out_features=1, bias=True)
    )
    (1-2): 2 x OutputLayer(
      (fc): Sequential(
        (0): Linear(in_features=240, out_features=2, bias=True)
        (1): LogSoftmax(dim=1)
      )
    )
    (3): OutputLayer(
      (fc): Sequential(
        (0): Linear(in_features=240, out_features=4, bias=True)
        (1): LogSoftmax(dim=1)
      )
    )
    (4-6): 3 x OutputLayer(
      (fc): Sequential(
        (0): Linear(in_features=240, out_features=2, bias=True)
        (1): LogSoftmax(dim=1)
      )
    )
  )
  (task_norms): ModuleList(
    (0-6): 7 x LayerNorm((240,), eps=1e-05, elementwise_affine=True)
  )
  (task_attentions): ModuleList(
    (0-6): 7 x SelfAttention(
      (query): Linear(in_features=240, out_features=240, bias=True)
      (key): Linear(in_features=240, out_features=240, bias=True)
      (value): Linear(in_features=240, out_features=240, bias=True)
      (softmax): Softmax(dim=-1)
    )
  )
)
normalizers : [<CGCNN_MT.datamodule.data_interface.Normalizer object at 0x7a8f9293c130>, <CGCNN_MT.datamodule.data_interface.Normalizer object at 0x7a8f9293c2e0>, <CGCNN_MT.datamodule.data_interface.Normalizer object at 0x7a8f9293ca30>, <CGCNN_MT.datamodule.data_interface.Normalizer object at 0x7a8f9293c5b0>, <CGCNN_MT.datamodule.data_interface.Normalizer object at 0x7a8f9293c6d0>, <CGCNN_MT.datamodule.data_interface.Normalizer object at 0x7a8f9293c910>, <CGCNN_MT.datamodule.data_interface.Normalizer object at 0x7a8f9293cfd0>]
…
data_dir : ./data
tasks : ['TSD', 'SSD', 'WS24_water', 'WS24_water4', 'WS24_acid', 'WS24_base', 'WS24_boiling']
task_types : ['regression', 'classification', 'classification', 'classification_4', 'classification', 'classification', 'classification']
dl_sampler : random
loss_aggregation : fixed_weight_sum
model_cfg : att_cgcnn
max_graph_len : 200
reconstruct : False
task_cfg : tsd_ssd_ws24
pruning : False
optuna_name : optuna
dataset_cls : <class 'CGCNN_MT.datamodule.dataset.LoadGraphData'>
orig_extra_fea_len : 6
orig_atom_fea_len : 92
nbr_fea_len : 41
model : CrystalGraphConvNet(
  (embedding_atom): Linear(in_features=92, out_features=160, bias=True)
  (embedding_atom_norm): LayerNorm((160,), eps=1e-05, elementwise_affine=True)
  (convs): ModuleList(
    (0-4): 5 x ConvLayer(
      (fc_full): Linear(in_features=361, out_features=320, bias=True)
      (sigmoid): Sigmoid()
      (softplus1): Softplus(beta=1.0, threshold=20.0)
      (bn1): BatchNorm1d(320, eps=1e-05, momentum=0.1, affine=True, track_running_stats=True)
      (bn2): BatchNorm1d(160, eps=1e-05, momentum=0.1, affine=True, track_running_stats=True)
      (softplus2): Softplus(beta=1.0, threshold=20.0)
    )
  )
  (embedding_extra): Linear(in_features=6, out_features=32, bias=True)
  (embedding_extra_norm): BatchNorm1d(32, eps=1e-05, momentum=0.1, affine=True, track_running_stats=True)
  (embedding_extra_softplus): Softplus(beta=1.0, threshold=20.0)
  (conv_to_fc): Linear(in_features=192, out_features=144, bias=True)
  (conv_to_fc_norm): BatchNorm1d(144, eps=1e-05, momentum=0.1, affine=True, track_running_stats=True)
  (conv_to_fc_softplus): Softplus(beta=1.0, threshold=20.0)
  (dropout): Dropout(p=0.35000000000000003, inplace=False)
  (fcs): ModuleList(
    (0-1): 2 x Linear(in_features=144, out_features=144, bias=True)
  )
  (norms): ModuleList(
    (0-1): 2 x BatchNorm1d(144, eps=1e-05, momentum=0.1, affine=True, track_running_stats=True)
  )
  (softpluses): ModuleList(
    (0-1): 2 x Softplus(beta=1.0, threshold=20.0)
  )
  (fc_outs): ModuleList(
    (0): OutputLayer(
      (fc): Linear(in_features=144, out_features=1, bias=True)
    )
    (1-2): 2 x OutputLayer(
      (fc): Sequential(
        (0): Linear(in_features=144, out_features=2, bias=True)
        (1): LogSoftmax(dim=1)
      )
    )
    (3): OutputLayer(
      (fc): Sequential(
        (0): Linear(in_features=144, out_features=4, bias=True)
        (1): LogSoftmax(dim=1)
      )
    )
    (4-6): 3 x OutputLayer(
      (fc): Sequential(
        (0): Linear(in_features=144, out_features=2, bias=True)
        (1): LogSoftmax(dim=1)
      )
    )
  )
  (task_norms): ModuleList(
    (0-6): 7 x LayerNorm((144,), eps=1e-05, elementwise_affine=True)
  )
  (task_attentions): ModuleList(
    (0-6): 7 x SelfAttention(
      (query): Linear(in_features=144, out_features=144, bias=True)
      (key): Linear(in_features=144, out_features=144, bias=True)
      (value): Linear(in_features=144, out_features=144, bias=True)
      (softmax): Softmax(dim=-1)
    )
  )
)
normalizers : [<CGCNN_MT.datamodule.data_interface.Normalizer object at 0x7a8f92bbe850>, <CGCNN_MT.datamodule.data_interface.Normalizer object at 0x7a8f92bbe880>, <CGCNN_MT.datamodule.data_interface.Normalizer object at 0x7a8f92bbe160>, <CGCNN_MT.datamodule.data_interface.Normalizer object at 0x7a8f92bbee20>, <CGCNN_MT.datamodule.data_interface.Normalizer object at 0x7a8f92bbe8b0>, <CGCNN_MT.datamodule.data_interface.Normalizer object at 0x7a8f92bbe130>, <CGCNN_MT.datamodule.data_interface.Normalizer object at 0x7a8f92bbe8e0>]
…
data_dir : ./data
tasks : ['TSD', 'SSD', 'WS24_water', 'WS24_water4', 'WS24_acid', 'WS24_base', 'WS24_boiling']
task_types : ['regression', 'classification', 'classification', 'classification_4', 'classification', 'classification', 'classification']
dl_sampler : random
loss_aggregation : fixed_weight_sum
model_cfg : att_cgcnn
max_graph_len : 200
reconstruct : False
task_cfg : tsd_ssd_ws24
pruning : False
optuna_name : optuna
dataset_cls : <class 'CGCNN_MT.datamodule.dataset.LoadGraphData'>
orig_extra_fea_len : 6
orig_atom_fea_len : 92
nbr_fea_len : 41
model : CrystalGraphConvNet(
  (embedding_atom): Linear(in_features=92, out_features=96, bias=True)
  (embedding_atom_norm): LayerNorm((96,), eps=1e-05, elementwise_affine=True)
  (convs): ModuleList(
    (0-9): 10 x ConvLayer(
      (fc_full): Linear(in_features=233, out_features=192, bias=True)
      (sigmoid): Sigmoid()
      (softplus1): Softplus(beta=1.0, threshold=20.0)
      (bn1): BatchNorm1d(192, eps=1e-05, momentum=0.1, affine=True, track_running_stats=True)
      (bn2): BatchNorm1d(96, eps=1e-05, momentum=0.1, affine=True, track_running_stats=True)
      (softplus2): Softplus(beta=1.0, threshold=20.0)
    )
  )
  (embedding_extra): Linear(in_features=6, out_features=60, bias=True)
  (embedding_extra_norm): BatchNorm1d(60, eps=1e-05, momentum=0.1, affine=True, track_running_stats=True)
  (embedding_extra_softplus): Softplus(beta=1.0, threshold=20.0)
  (conv_to_fc): Linear(in_features=156, out_features=144, bias=True)
  (conv_to_fc_norm): BatchNorm1d(144, eps=1e-05, momentum=0.1, affine=True, track_running_stats=True)
  (conv_to_fc_softplus): Softplus(beta=1.0, threshold=20.0)
  (dropout): Dropout(p=0.35000000000000003, inplace=False)
  (fcs): ModuleList(
    (0-5): 6 x Linear(in_features=144, out_features=144, bias=True)
  )
  (norms): ModuleList(
    (0-5): 6 x BatchNorm1d(144, eps=1e-05, momentum=0.1, affine=True, track_running_stats=True)
  )
  (softpluses): ModuleList(
    (0-5): 6 x Softplus(beta=1.0, threshold=20.0)
  )
  (fc_outs): ModuleList(
    (0): OutputLayer(
      (fc): Linear(in_features=144, out_features=1, bias=True)
    )
    (1-2): 2 x OutputLayer(
      (fc): Sequential(
        (0): Linear(in_features=144, out_features=2, bias=True)
        (1): LogSoftmax(dim=1)
      )
    )
    (3): OutputLayer(
      (fc): Sequential(
        (0): Linear(in_features=144, out_features=4, bias=True)
        (1): LogSoftmax(dim=1)
      )
    )
    (4-6): 3 x OutputLayer(
      (fc): Sequential(
        (0): Linear(in_features=144, out_features=2, bias=True)
        (1): LogSoftmax(dim=1)
      )
    )
  )
  (task_norms): ModuleList(
    (0-6): 7 x LayerNorm((144,), eps=1e-05, elementwise_affine=True)
  )
  (task_attentions): ModuleList(
    (0-6): 7 x SelfAttention(
      (query): Linear(in_features=144, out_features=144, bias=True)
      (key): Linear(in_features=144, out_features=144, bias=True)
      (value): Linear(in_features=144, out_features=144, bias=True)
      (softmax): Softmax(dim=-1)
    )
  )
)
normalizers : [<CGCNN_MT.datamodule.data_interface.Normalizer object at 0x7a8f926d0bb0>, <CGCNN_MT.datamodule.data_interface.Normalizer object at 0x7a8f926d0100>, <CGCNN_MT.datamodule.data_interface.Normalizer object at 0x7a8f926d0f70>, <CGCNN_MT.datamodule.data_interface.Normalizer object at 0x7a8f926d05e0>, <CGCNN_MT.datamodule.data_interface.Normalizer object at 0x7a8f926d0f10>, <CGCNN_MT.datamodule.data_interface.Normalizer object at 0x7a8f926d0310>, <CGCNN_MT.datamodule.data_interface.Normalizer object at 0x7a8f926d0a00>]
…
data_dir : ./data
tasks : ['TSD', 'SSD', 'WS24_water', 'WS24_water4', 'WS24_acid', 'WS24_base', 'WS24_boiling']
task_types : ['regression', 'classification', 'classification', 'classification_4', 'classification', 'classification', 'classification']
dl_sampler : random
loss_aggregation : fixed_weight_sum
model_cfg : att_cgcnn
max_graph_len : 200
reconstruct : False
task_cfg : tsd_ssd_ws24
pruning : False
optuna_name : optuna
dataset_cls : <class 'CGCNN_MT.datamodule.dataset.LoadGraphData'>
orig_extra_fea_len : 6
orig_atom_fea_len : 92
nbr_fea_len : 41
model : CrystalGraphConvNet(
  (embedding_atom): Linear(in_features=92, out_features=272, bias=True)
  (embedding_atom_norm): LayerNorm((272,), eps=1e-05, elementwise_affine=True)
  (convs): ModuleList(
    (0-7): 8 x ConvLayer(
      (fc_full): Linear(in_features=585, out_features=544, bias=True)
      (sigmoid): Sigmoid()
      (softplus1): Softplus(beta=1.0, threshold=20.0)
      (bn1): BatchNorm1d(544, eps=1e-05, momentum=0.1, affine=True, track_running_stats=True)
      (bn2): BatchNorm1d(272, eps=1e-05, momentum=0.1, affine=True, track_running_stats=True)
      (softplus2): Softplus(beta=1.0, threshold=20.0)
    )
  )
  (embedding_extra): Linear(in_features=6, out_features=20, bias=True)
  (embedding_extra_norm): BatchNorm1d(20, eps=1e-05, momentum=0.1, affine=True, track_running_stats=True)
  (embedding_extra_softplus): Softplus(beta=1.0, threshold=20.0)
  (conv_to_fc): Linear(in_features=292, out_features=128, bias=True)
  (conv_to_fc_norm): BatchNorm1d(128, eps=1e-05, momentum=0.1, affine=True, track_running_stats=True)
  (conv_to_fc_softplus): Softplus(beta=1.0, threshold=20.0)
  (dropout): Dropout(p=0.5, inplace=False)
  (fcs): ModuleList(
    (0-3): 4 x Linear(in_features=128, out_features=128, bias=True)
  )
  (norms): ModuleList(
    (0-3): 4 x BatchNorm1d(128, eps=1e-05, momentum=0.1, affine=True, track_running_stats=True)
  )
  (softpluses): ModuleList(
    (0-3): 4 x Softplus(beta=1.0, threshold=20.0)
  )
  (fc_outs): ModuleList(
    (0): OutputLayer(
      (fc): Linear(in_features=128, out_features=1, bias=True)
    )
    (1-2): 2 x OutputLayer(
      (fc): Sequential(
        (0): Linear(in_features=128, out_features=2, bias=True)
        (1): LogSoftmax(dim=1)
      )
    )
    (3): OutputLayer(
      (fc): Sequential(
        (0): Linear(in_features=128, out_features=4, bias=True)
        (1): LogSoftmax(dim=1)
      )
    )
    (4-6): 3 x OutputLayer(
      (fc): Sequential(
        (0): Linear(in_features=128, out_features=2, bias=True)
        (1): LogSoftmax(dim=1)
      )
    )
  )
  (task_norms): ModuleList(
    (0-6): 7 x LayerNorm((128,), eps=1e-05, elementwise_affine=True)
  )
  (task_attentions): ModuleList(
    (0-6): 7 x SelfAttention(
      (query): Linear(in_features=128, out_features=128, bias=True)
      (key): Linear(in_features=128, out_features=128, bias=True)
      (value): Linear(in_features=128, out_features=128, bias=True)
      (softmax): Softmax(dim=-1)
    )
  )
)
normalizers : [<CGCNN_MT.datamodule.data_interface.Normalizer object at 0x7a8f88635610>, <CGCNN_MT.datamodule.data_interface.Normalizer object at 0x7a8f88635d90>, <CGCNN_MT.datamodule.data_interface.Normalizer object at 0x7a8f88635d60>, <CGCNN_MT.datamodule.data_interface.Normalizer object at 0x7a8f88635fa0>, <CGCNN_MT.datamodule.data_interface.Normalizer object at 0x7a8f88635490>, <CGCNN_MT.datamodule.data_interface.Normalizer object at 0x7a8f88635340>, <CGCNN_MT.datamodule.data_interface.Normalizer object at 0x7a8f88635640>]
…
data_dir : ./data
tasks : ['TSD', 'SSD', 'WS24_water', 'WS24_water4', 'WS24_acid', 'WS24_base', 'WS24_boiling']
task_types : ['regression', 'classification', 'classification', 'classification_4', 'classification', 'classification', 'classification']
dl_sampler : random
loss_aggregation : fixed_weight_sum
model_cfg : att_cgcnn
max_graph_len : 200
reconstruct : False
task_cfg : tsd_ssd_ws24
pruning : False
optuna_name : optuna
dataset_cls : <class 'CGCNN_MT.datamodule.dataset.LoadGraphData'>
orig_extra_fea_len : 6
orig_atom_fea_len : 92
nbr_fea_len : 41
model : CrystalGraphConvNet(
  (embedding_atom): Linear(in_features=92, out_features=176, bias=True)
  (embedding_atom_norm): LayerNorm((176,), eps=1e-05, elementwise_affine=True)
  (convs): ModuleList(
    (0-6): 7 x ConvLayer(
      (fc_full): Linear(in_features=393, out_features=352, bias=True)
      (sigmoid): Sigmoid()
      (softplus1): Softplus(beta=1.0, threshold=20.0)
      (bn1): BatchNorm1d(352, eps=1e-05, momentum=0.1, affine=True, track_running_stats=True)
      (bn2): BatchNorm1d(176, eps=1e-05, momentum=0.1, affine=True, track_running_stats=True)
      (softplus2): Softplus(beta=1.0, threshold=20.0)
    )
  )
  (embedding_extra): Linear(in_features=6, out_features=52, bias=True)
  (embedding_extra_norm): BatchNorm1d(52, eps=1e-05, momentum=0.1, affine=True, track_running_stats=True)
  (embedding_extra_softplus): Softplus(beta=1.0, threshold=20.0)
  (conv_to_fc): Linear(in_features=228, out_features=176, bias=True)
  (conv_to_fc_norm): BatchNorm1d(176, eps=1e-05, momentum=0.1, affine=True, track_running_stats=True)
  (conv_to_fc_softplus): Softplus(beta=1.0, threshold=20.0)
  (dropout): Dropout(p=0.4, inplace=False)
  (fcs): ModuleList(
    (0-8): 9 x Linear(in_features=176, out_features=176, bias=True)
  )
  (norms): ModuleList(
    (0-8): 9 x BatchNorm1d(176, eps=1e-05, momentum=0.1, affine=True, track_running_stats=True)
  )
  (softpluses): ModuleList(
    (0-8): 9 x Softplus(beta=1.0, threshold=20.0)
  )
  (fc_outs): ModuleList(
    (0): OutputLayer(
      (fc): Linear(in_features=176, out_features=1, bias=True)
    )
    (1-2): 2 x OutputLayer(
      (fc): Sequential(
        (0): Linear(in_features=176, out_features=2, bias=True)
        (1): LogSoftmax(dim=1)
      )
    )
    (3): OutputLayer(
      (fc): Sequential(
        (0): Linear(in_features=176, out_features=4, bias=True)
        (1): LogSoftmax(dim=1)
      )
    )
    (4-6): 3 x OutputLayer(
      (fc): Sequential(
        (0): Linear(in_features=176, out_features=2, bias=True)
        (1): LogSoftmax(dim=1)
      )
    )
  )
  (task_norms): ModuleList(
    (0-6): 7 x LayerNorm((176,), eps=1e-05, elementwise_affine=True)
  )
  (task_attentions): ModuleList(
    (0-6): 7 x SelfAttention(
      (query): Linear(in_features=176, out_features=176, bias=True)
      (key): Linear(in_features=176, out_features=176, bias=True)
      (value): Linear(in_features=176, out_features=176, bias=True)
      (softmax): Softmax(dim=-1)
    )
  )
)
normalizers : [<CGCNN_MT.datamodule.data_interface.Normalizer object at 0x7a8f922b8a90>, <CGCNN_MT.datamodule.data_interface.Normalizer object at 0x7a8f926e7970>, <CGCNN_MT.datamodule.data_interface.Normalizer object at 0x7a8f926e7580>, <CGCNN_MT.datamodule.data_interface.Normalizer object at 0x7a8f926e75e0>, <CGCNN_MT.datamodule.data_interface.Normalizer object at 0x7a8f926e7070>, <CGCNN_MT.datamodule.data_interface.Normalizer object at 0x7a8f926e78b0>, <CGCNN_MT.datamodule.data_interface.Normalizer object at 0x7a8f926e73d0>]
…
data_dir : ./data
tasks : ['TSD', 'SSD', 'WS24_water', 'WS24_water4', 'WS24_acid', 'WS24_base', 'WS24_boiling']
task_types : ['regression', 'classification', 'classification', 'classification_4', 'classification', 'classification', 'classification']
dl_sampler : random
loss_aggregation : fixed_weight_sum
model_cfg : att_cgcnn
max_graph_len : 200
reconstruct : False
task_cfg : tsd_ssd_ws24
pruning : False
optuna_name : optuna
dataset_cls : <class 'CGCNN_MT.datamodule.dataset.LoadGraphData'>
orig_extra_fea_len : 6
orig_atom_fea_len : 92
nbr_fea_len : 41
model : CrystalGraphConvNet(
  (embedding_atom): Linear(in_features=92, out_features=96, bias=True)
  (embedding_atom_norm): LayerNorm((96,), eps=1e-05, elementwise_affine=True)
  (convs): ModuleList(
    (0-8): 9 x ConvLayer(
      (fc_full): Linear(in_features=233, out_features=192, bias=True)
      (sigmoid): Sigmoid()
      (softplus1): Softplus(beta=1.0, threshold=20.0)
      (bn1): BatchNorm1d(192, eps=1e-05, momentum=0.1, affine=True, track_running_stats=True)
      (bn2): BatchNorm1d(96, eps=1e-05, momentum=0.1, affine=True, track_running_stats=True)
      (softplus2): Softplus(beta=1.0, threshold=20.0)
    )
  )
  (embedding_extra): Linear(in_features=6, out_features=32, bias=True)
  (embedding_extra_norm): BatchNorm1d(32, eps=1e-05, momentum=0.1, affine=True, track_running_stats=True)
  (embedding_extra_softplus): Softplus(beta=1.0, threshold=20.0)
  (conv_to_fc): Linear(in_features=128, out_features=48, bias=True)
  (conv_to_fc_norm): BatchNorm1d(48, eps=1e-05, momentum=0.1, affine=True, track_running_stats=True)
  (conv_to_fc_softplus): Softplus(beta=1.0, threshold=20.0)
  (dropout): Dropout(p=0.8, inplace=False)
  (fcs): ModuleList(
    (0-2): 3 x Linear(in_features=48, out_features=48, bias=True)
  )
  (norms): ModuleList(
    (0-2): 3 x BatchNorm1d(48, eps=1e-05, momentum=0.1, affine=True, track_running_stats=True)
  )
  (softpluses): ModuleList(
    (0-2): 3 x Softplus(beta=1.0, threshold=20.0)
  )
  (fc_outs): ModuleList(
    (0): OutputLayer(
      (fc): Linear(in_features=48, out_features=1, bias=True)
    )
    (1-2): 2 x OutputLayer(
      (fc): Sequential(
        (0): Linear(in_features=48, out_features=2, bias=True)
        (1): LogSoftmax(dim=1)
      )
    )
    (3): OutputLayer(
      (fc): Sequential(
        (0): Linear(in_features=48, out_features=4, bias=True)
        (1): LogSoftmax(dim=1)
      )
    )
    (4-6): 3 x OutputLayer(
      (fc): Sequential(
        (0): Linear(in_features=48, out_features=2, bias=True)
        (1): LogSoftmax(dim=1)
      )
    )
  )
  (task_norms): ModuleList(
    (0-6): 7 x LayerNorm((48,), eps=1e-05, elementwise_affine=True)
  )
  (task_attentions): ModuleList(
    (0-6): 7 x SelfAttention(
      (query): Linear(in_features=48, out_features=48, bias=True)
      (key): Linear(in_features=48, out_features=48, bias=True)
      (value): Linear(in_features=48, out_features=48, bias=True)
      (softmax): Softmax(dim=-1)
    )
  )
)
normalizers : [<CGCNN_MT.datamodule.data_interface.Normalizer object at 0x7a8f92d2e3a0>, <CGCNN_MT.datamodule.data_interface.Normalizer object at 0x7a8f92d2e5b0>, <CGCNN_MT.datamodule.data_interface.Normalizer object at 0x7a8f92d2e9a0>, <CGCNN_MT.datamodule.data_interface.Normalizer object at 0x7a8f92d2e970>, <CGCNN_MT.datamodule.data_interface.Normalizer object at 0x7a8f92d2e340>, <CGCNN_MT.datamodule.data_interface.Normalizer object at 0x7a8f92d2e8e0>, <CGCNN_MT.datamodule.data_interface.Normalizer object at 0x7a8f92d2e220>]
…
data_dir : ./data
tasks : ['TSD', 'SSD', 'WS24_water', 'WS24_water4', 'WS24_acid', 'WS24_base', 'WS24_boiling']
task_types : ['regression', 'classification', 'classification', 'classification_4', 'classification', 'classification', 'classification']
dl_sampler : random
loss_aggregation : fixed_weight_sum
model_cfg : att_cgcnn
max_graph_len : 200
reconstruct : False
task_cfg : tsd_ssd_ws24
pruning : False
optuna_name : optuna
dataset_cls : <class 'CGCNN_MT.datamodule.dataset.LoadGraphData'>
orig_extra_fea_len : 6
orig_atom_fea_len : 92
nbr_fea_len : 41
model : CrystalGraphConvNet(
  (embedding_atom): Linear(in_features=92, out_features=112, bias=True)
  (embedding_atom_norm): LayerNorm((112,), eps=1e-05, elementwise_affine=True)
  (convs): ModuleList(
    (0-1): 2 x ConvLayer(
      (fc_full): Linear(in_features=265, out_features=224, bias=True)
      (sigmoid): Sigmoid()
      (softplus1): Softplus(beta=1.0, threshold=20.0)
      (bn1): BatchNorm1d(224, eps=1e-05, momentum=0.1, affine=True, track_running_stats=True)
      (bn2): BatchNorm1d(112, eps=1e-05, momentum=0.1, affine=True, track_running_stats=True)
      (softplus2): Softplus(beta=1.0, threshold=20.0)
    )
  )
  (embedding_extra): Linear(in_features=6, out_features=16, bias=True)
  (embedding_extra_norm): BatchNorm1d(16, eps=1e-05, momentum=0.1, affine=True, track_running_stats=True)
  (embedding_extra_softplus): Softplus(beta=1.0, threshold=20.0)
  (conv_to_fc): Linear(in_features=128, out_features=192, bias=True)
  (conv_to_fc_norm): BatchNorm1d(192, eps=1e-05, momentum=0.1, affine=True, track_running_stats=True)
  (conv_to_fc_softplus): Softplus(beta=1.0, threshold=20.0)
  (dropout): Dropout(p=0.55, inplace=False)
  (fcs): ModuleList(
    (0): Linear(in_features=192, out_features=192, bias=True)
  )
  (norms): ModuleList(
    (0): BatchNorm1d(192, eps=1e-05, momentum=0.1, affine=True, track_running_stats=True)
  )
  (softpluses): ModuleList(
    (0): Softplus(beta=1.0, threshold=20.0)
  )
  (fc_outs): ModuleList(
    (0): OutputLayer(
      (fc): Linear(in_features=192, out_features=1, bias=True)
    )
    (1-2): 2 x OutputLayer(
      (fc): Sequential(
        (0): Linear(in_features=192, out_features=2, bias=True)
        (1): LogSoftmax(dim=1)
      )
    )
    (3): OutputLayer(
      (fc): Sequential(
        (0): Linear(in_features=192, out_features=4, bias=True)
        (1): LogSoftmax(dim=1)
      )
    )
    (4-6): 3 x OutputLayer(
      (fc): Sequential(
        (0): Linear(in_features=192, out_features=2, bias=True)
        (1): LogSoftmax(dim=1)
      )
    )
  )
  (task_norms): ModuleList(
    (0-6): 7 x LayerNorm((192,), eps=1e-05, elementwise_affine=True)
  )
  (task_attentions): ModuleList(
    (0-6): 7 x SelfAttention(
      (query): Linear(in_features=192, out_features=192, bias=True)
      (key): Linear(in_features=192, out_features=192, bias=True)
      (value): Linear(in_features=192, out_features=192, bias=True)
      (softmax): Softmax(dim=-1)
    )
  )
)
normalizers : [<CGCNN_MT.datamodule.data_interface.Normalizer object at 0x7a8fa067d970>, <CGCNN_MT.datamodule.data_interface.Normalizer object at 0x7a8fa067d9a0>, <CGCNN_MT.datamodule.data_interface.Normalizer object at 0x7a8fa067d430>, <CGCNN_MT.datamodule.data_interface.Normalizer object at 0x7a8fa067d160>, <CGCNN_MT.datamodule.data_interface.Normalizer object at 0x7a8fa067df10>, <CGCNN_MT.datamodule.data_interface.Normalizer object at 0x7a8fa067d670>, <CGCNN_MT.datamodule.data_interface.Normalizer object at 0x7a8fa067d8e0>]
…
data_dir : ./data
tasks : ['TSD', 'SSD', 'WS24_water', 'WS24_water4', 'WS24_acid', 'WS24_base', 'WS24_boiling']
task_types : ['regression', 'classification', 'classification', 'classification_4', 'classification', 'classification', 'classification']
dl_sampler : random
loss_aggregation : fixed_weight_sum
model_cfg : att_cgcnn
max_graph_len : 200
reconstruct : False
task_cfg : tsd_ssd_ws24
pruning : False
optuna_name : optuna
dataset_cls : <class 'CGCNN_MT.datamodule.dataset.LoadGraphData'>
orig_extra_fea_len : 6
orig_atom_fea_len : 92
nbr_fea_len : 41
model : CrystalGraphConvNet(
  (embedding_atom): Linear(in_features=92, out_features=96, bias=True)
  (embedding_atom_norm): LayerNorm((96,), eps=1e-05, elementwise_affine=True)
  (convs): ModuleList(
    (0-8): 9 x ConvLayer(
      (fc_full): Linear(in_features=233, out_features=192, bias=True)
      (sigmoid): Sigmoid()
      (softplus1): Softplus(beta=1.0, threshold=20.0)
      (bn1): BatchNorm1d(192, eps=1e-05, momentum=0.1, affine=True, track_running_stats=True)
      (bn2): BatchNorm1d(96, eps=1e-05, momentum=0.1, affine=True, track_running_stats=True)
      (softplus2): Softplus(beta=1.0, threshold=20.0)
    )
  )
  (embedding_extra): Linear(in_features=6, out_features=64, bias=True)
  (embedding_extra_norm): BatchNorm1d(64, eps=1e-05, momentum=0.1, affine=True, track_running_stats=True)
  (embedding_extra_softplus): Softplus(beta=1.0, threshold=20.0)
  (conv_to_fc): Linear(in_features=160, out_features=256, bias=True)
  (conv_to_fc_norm): BatchNorm1d(256, eps=1e-05, momentum=0.1, affine=True, track_running_stats=True)
  (conv_to_fc_softplus): Softplus(beta=1.0, threshold=20.0)
  (dropout): Dropout(p=0.25, inplace=False)
  (fcs): ModuleList(
    (0-1): 2 x Linear(in_features=256, out_features=256, bias=True)
  )
  (norms): ModuleList(
    (0-1): 2 x BatchNorm1d(256, eps=1e-05, momentum=0.1, affine=True, track_running_stats=True)
  )
  (softpluses): ModuleList(
    (0-1): 2 x Softplus(beta=1.0, threshold=20.0)
  )
  (fc_outs): ModuleList(
    (0): OutputLayer(
      (fc): Linear(in_features=256, out_features=1, bias=True)
    )
    (1-2): 2 x OutputLayer(
      (fc): Sequential(
        (0): Linear(in_features=256, out_features=2, bias=True)
        (1): LogSoftmax(dim=1)
      )
    )
    (3): OutputLayer(
      (fc): Sequential(
        (0): Linear(in_features=256, out_features=4, bias=True)
        (1): LogSoftmax(dim=1)
      )
    )
    (4-6): 3 x OutputLayer(
      (fc): Sequential(
        (0): Linear(in_features=256, out_features=2, bias=True)
        (1): LogSoftmax(dim=1)
      )
    )
  )
  (task_norms): ModuleList(
    (0-6): 7 x LayerNorm((256,), eps=1e-05, elementwise_affine=True)
  )
  (task_attentions): ModuleList(
    (0-6): 7 x SelfAttention(
      (query): Linear(in_features=256, out_features=256, bias=True)
      (key): Linear(in_features=256, out_features=256, bias=True)
      (value): Linear(in_features=256, out_features=256, bias=True)
      (softmax): Softmax(dim=-1)
    )
  )
)
normalizers : [<CGCNN_MT.datamodule.data_interface.Normalizer object at 0x7a8f90b0cd00>, <CGCNN_MT.datamodule.data_interface.Normalizer object at 0x7a8f90b0cbe0>, <CGCNN_MT.datamodule.data_interface.Normalizer object at 0x7a8f90b0c6a0>, <CGCNN_MT.datamodule.data_interface.Normalizer object at 0x7a8f90b0c670>, <CGCNN_MT.datamodule.data_interface.Normalizer object at 0x7a8f90b0c700>, <CGCNN_MT.datamodule.data_interface.Normalizer object at 0x7a8f90b0cdf0>, <CGCNN_MT.datamodule.data_interface.Normalizer object at 0x7a8f90b0ce50>]
…
data_dir : ./data
tasks : ['TSD', 'SSD', 'WS24_water', 'WS24_water4', 'WS24_acid', 'WS24_base', 'WS24_boiling']
task_types : ['regression', 'classification', 'classification', 'classification_4', 'classification', 'classification', 'classification']
dl_sampler : random
loss_aggregation : fixed_weight_sum
model_cfg : att_cgcnn
max_graph_len : 200
reconstruct : False
task_cfg : tsd_ssd_ws24
pruning : False
optuna_name : optuna
dataset_cls : <class 'CGCNN_MT.datamodule.dataset.LoadGraphData'>
orig_extra_fea_len : 6
orig_atom_fea_len : 92
nbr_fea_len : 41
model : CrystalGraphConvNet(
  (embedding_atom): Linear(in_features=92, out_features=272, bias=True)
  (embedding_atom_norm): LayerNorm((272,), eps=1e-05, elementwise_affine=True)
  (convs): ModuleList(
    (0-7): 8 x ConvLayer(
      (fc_full): Linear(in_features=585, out_features=544, bias=True)
      (sigmoid): Sigmoid()
      (softplus1): Softplus(beta=1.0, threshold=20.0)
      (bn1): BatchNorm1d(544, eps=1e-05, momentum=0.1, affine=True, track_running_stats=True)
      (bn2): BatchNorm1d(272, eps=1e-05, momentum=0.1, affine=True, track_running_stats=True)
      (softplus2): Softplus(beta=1.0, threshold=20.0)
    )
  )
  (embedding_extra): Linear(in_features=6, out_features=28, bias=True)
  (embedding_extra_norm): BatchNorm1d(28, eps=1e-05, momentum=0.1, affine=True, track_running_stats=True)
  (embedding_extra_softplus): Softplus(beta=1.0, threshold=20.0)
  (conv_to_fc): Linear(in_features=300, out_features=160, bias=True)
  (conv_to_fc_norm): BatchNorm1d(160, eps=1e-05, momentum=0.1, affine=True, track_running_stats=True)
  (conv_to_fc_softplus): Softplus(beta=1.0, threshold=20.0)
  (dropout): Dropout(p=0.5, inplace=False)
  (fcs): ModuleList(
    (0): Linear(in_features=160, out_features=160, bias=True)
  )
  (norms): ModuleList(
    (0): BatchNorm1d(160, eps=1e-05, momentum=0.1, affine=True, track_running_stats=True)
  )
  (softpluses): ModuleList(
    (0): Softplus(beta=1.0, threshold=20.0)
  )
  (fc_outs): ModuleList(
    (0): OutputLayer(
      (fc): Linear(in_features=160, out_features=1, bias=True)
    )
    (1-2): 2 x OutputLayer(
      (fc): Sequential(
        (0): Linear(in_features=160, out_features=2, bias=True)
        (1): LogSoftmax(dim=1)
      )
    )
    (3): OutputLayer(
      (fc): Sequential(
        (0): Linear(in_features=160, out_features=4, bias=True)
        (1): LogSoftmax(dim=1)
      )
    )
    (4-6): 3 x OutputLayer(
      (fc): Sequential(
        (0): Linear(in_features=160, out_features=2, bias=True)
        (1): LogSoftmax(dim=1)
      )
    )
  )
  (task_norms): ModuleList(
    (0-6): 7 x LayerNorm((160,), eps=1e-05, elementwise_affine=True)
  )
  (task_attentions): ModuleList(
    (0-6): 7 x SelfAttention(
      (query): Linear(in_features=160, out_features=160, bias=True)
      (key): Linear(in_features=160, out_features=160, bias=True)
      (value): Linear(in_features=160, out_features=160, bias=True)
      (softmax): Softmax(dim=-1)
    )
  )
)
normalizers : [<CGCNN_MT.datamodule.data_interface.Normalizer object at 0x7a8fa4b774f0>, <CGCNN_MT.datamodule.data_interface.Normalizer object at 0x7a8fa4b77fd0>, <CGCNN_MT.datamodule.data_interface.Normalizer object at 0x7a8fa4b778b0>, <CGCNN_MT.datamodule.data_interface.Normalizer object at 0x7a8fa4b77970>, <CGCNN_MT.datamodule.data_interface.Normalizer object at 0x7a8fa4b77280>, <CGCNN_MT.datamodule.data_interface.Normalizer object at 0x7a8fa4b77c70>, <CGCNN_MT.datamodule.data_interface.Normalizer object at 0x7a8fa4b77640>]
…
data_dir : ./data
tasks : ['TSD', 'SSD', 'WS24_water', 'WS24_water4', 'WS24_acid', 'WS24_base', 'WS24_boiling']
task_types : ['regression', 'classification', 'classification', 'classification_4', 'classification', 'classification', 'classification']
dl_sampler : random
loss_aggregation : fixed_weight_sum
model_cfg : att_cgcnn
max_graph_len : 200
reconstruct : False
task_cfg : tsd_ssd_ws24
pruning : False
optuna_name : optuna
dataset_cls : <class 'CGCNN_MT.datamodule.dataset.LoadGraphData'>
orig_extra_fea_len : 6
orig_atom_fea_len : 92
nbr_fea_len : 41
model : CrystalGraphConvNet(
  (embedding_atom): Linear(in_features=92, out_features=128, bias=True)
  (embedding_atom_norm): LayerNorm((128,), eps=1e-05, elementwise_affine=True)
  (convs): ModuleList(
    (0): ConvLayer(
      (fc_full): Linear(in_features=297, out_features=256, bias=True)
      (sigmoid): Sigmoid()
      (softplus1): Softplus(beta=1.0, threshold=20.0)
      (bn1): BatchNorm1d(256, eps=1e-05, momentum=0.1, affine=True, track_running_stats=True)
      (bn2): BatchNorm1d(128, eps=1e-05, momentum=0.1, affine=True, track_running_stats=True)
      (softplus2): Softplus(beta=1.0, threshold=20.0)
    )
  )
  (embedding_extra): Linear(in_features=6, out_features=52, bias=True)
  (embedding_extra_norm): BatchNorm1d(52, eps=1e-05, momentum=0.1, affine=True, track_running_stats=True)
  (embedding_extra_softplus): Softplus(beta=1.0, threshold=20.0)
  (conv_to_fc): Linear(in_features=180, out_features=176, bias=True)
  (conv_to_fc_norm): BatchNorm1d(176, eps=1e-05, momentum=0.1, affine=True, track_running_stats=True)
  (conv_to_fc_softplus): Softplus(beta=1.0, threshold=20.0)
  (dropout): Dropout(p=0.25, inplace=False)
  (fcs): ModuleList(
    (0): Linear(in_features=176, out_features=176, bias=True)
  )
  (norms): ModuleList(
    (0): BatchNorm1d(176, eps=1e-05, momentum=0.1, affine=True, track_running_stats=True)
  )
  (softpluses): ModuleList(
    (0): Softplus(beta=1.0, threshold=20.0)
  )
  (fc_outs): ModuleList(
    (0): OutputLayer(
      (fc): Linear(in_features=176, out_features=1, bias=True)
    )
    (1-2): 2 x OutputLayer(
      (fc): Sequential(
        (0): Linear(in_features=176, out_features=2, bias=True)
        (1): LogSoftmax(dim=1)
      )
    )
    (3): OutputLayer(
      (fc): Sequential(
        (0): Linear(in_features=176, out_features=4, bias=True)
        (1): LogSoftmax(dim=1)
      )
    )
    (4-6): 3 x OutputLayer(
      (fc): Sequential(
        (0): Linear(in_features=176, out_features=2, bias=True)
        (1): LogSoftmax(dim=1)
      )
    )
  )
  (task_norms): ModuleList(
    (0-6): 7 x LayerNorm((176,), eps=1e-05, elementwise_affine=True)
  )
  (task_attentions): ModuleList(
    (0-6): 7 x SelfAttention(
      (query): Linear(in_features=176, out_features=176, bias=True)
      (key): Linear(in_features=176, out_features=176, bias=True)
      (value): Linear(in_features=176, out_features=176, bias=True)
      (softmax): Softmax(dim=-1)
    )
  )
)
normalizers : [<CGCNN_MT.datamodule.data_interface.Normalizer object at 0x7a8f92a0cc70>, <CGCNN_MT.datamodule.data_interface.Normalizer object at 0x7a8f92a0cfd0>, <CGCNN_MT.datamodule.data_interface.Normalizer object at 0x7a8f92a0c520>, <CGCNN_MT.datamodule.data_interface.Normalizer object at 0x7a8f92a0cbe0>, <CGCNN_MT.datamodule.data_interface.Normalizer object at 0x7a8f92a0ccd0>, <CGCNN_MT.datamodule.data_interface.Normalizer object at 0x7a8f92a0c910>, <CGCNN_MT.datamodule.data_interface.Normalizer object at 0x7a8f92a0c460>]
…
data_dir : ./data
tasks : ['TSD', 'SSD', 'WS24_water', 'WS24_water4', 'WS24_acid', 'WS24_base', 'WS24_boiling']
task_types : ['regression', 'classification', 'classification', 'classification_4', 'classification', 'classification', 'classification']
dl_sampler : random
loss_aggregation : fixed_weight_sum
model_cfg : att_cgcnn
max_graph_len : 200
reconstruct : False
task_cfg : tsd_ssd_ws24
pruning : False
optuna_name : optuna
dataset_cls : <class 'CGCNN_MT.datamodule.dataset.LoadGraphData'>
orig_extra_fea_len : 6
orig_atom_fea_len : 92
nbr_fea_len : 41
model : CrystalGraphConvNet(
  (embedding_atom): Linear(in_features=92, out_features=256, bias=True)
  (embedding_atom_norm): LayerNorm((256,), eps=1e-05, elementwise_affine=True)
  (convs): ModuleList(
    (0-6): 7 x ConvLayer(
      (fc_full): Linear(in_features=553, out_features=512, bias=True)
      (sigmoid): Sigmoid()
      (softplus1): Softplus(beta=1.0, threshold=20.0)
      (bn1): BatchNorm1d(512, eps=1e-05, momentum=0.1, affine=True, track_running_stats=True)
      (bn2): BatchNorm1d(256, eps=1e-05, momentum=0.1, affine=True, track_running_stats=True)
      (softplus2): Softplus(beta=1.0, threshold=20.0)
    )
  )
  (embedding_extra): Linear(in_features=6, out_features=60, bias=True)
  (embedding_extra_norm): BatchNorm1d(60, eps=1e-05, momentum=0.1, affine=True, track_running_stats=True)
  (embedding_extra_softplus): Softplus(beta=1.0, threshold=20.0)
  (conv_to_fc): Linear(in_features=316, out_features=112, bias=True)
  (conv_to_fc_norm): BatchNorm1d(112, eps=1e-05, momentum=0.1, affine=True, track_running_stats=True)
  (conv_to_fc_softplus): Softplus(beta=1.0, threshold=20.0)
  (dropout): Dropout(p=0.5, inplace=False)
  (fcs): ModuleList(
    (0-8): 9 x Linear(in_features=112, out_features=112, bias=True)
  )
  (norms): ModuleList(
    (0-8): 9 x BatchNorm1d(112, eps=1e-05, momentum=0.1, affine=True, track_running_stats=True)
  )
  (softpluses): ModuleList(
    (0-8): 9 x Softplus(beta=1.0, threshold=20.0)
  )
  (fc_outs): ModuleList(
    (0): OutputLayer(
      (fc): Linear(in_features=112, out_features=1, bias=True)
    )
    (1-2): 2 x OutputLayer(
      (fc): Sequential(
        (0): Linear(in_features=112, out_features=2, bias=True)
        (1): LogSoftmax(dim=1)
      )
    )
    (3): OutputLayer(
      (fc): Sequential(
        (0): Linear(in_features=112, out_features=4, bias=True)
        (1): LogSoftmax(dim=1)
      )
    )
    (4-6): 3 x OutputLayer(
      (fc): Sequential(
        (0): Linear(in_features=112, out_features=2, bias=True)
        (1): LogSoftmax(dim=1)
      )
    )
  )
  (task_norms): ModuleList(
    (0-6): 7 x LayerNorm((112,), eps=1e-05, elementwise_affine=True)
  )
  (task_attentions): ModuleList(
    (0-6): 7 x SelfAttention(
      (query): Linear(in_features=112, out_features=112, bias=True)
      (key): Linear(in_features=112, out_features=112, bias=True)
      (value): Linear(in_features=112, out_features=112, bias=True)
      (softmax): Softmax(dim=-1)
    )
  )
)
normalizers : [<CGCNN_MT.datamodule.data_interface.Normalizer object at 0x7a8f927c0a30>, <CGCNN_MT.datamodule.data_interface.Normalizer object at 0x7a8f927c04c0>, <CGCNN_MT.datamodule.data_interface.Normalizer object at 0x7a8f927c0820>, <CGCNN_MT.datamodule.data_interface.Normalizer object at 0x7a8f927c0280>, <CGCNN_MT.datamodule.data_interface.Normalizer object at 0x7a8f927c0a60>, <CGCNN_MT.datamodule.data_interface.Normalizer object at 0x7a8f927c07c0>, <CGCNN_MT.datamodule.data_interface.Normalizer object at 0x7a8f927c0f10>]
…
data_dir : ./data
tasks : ['TSD', 'SSD', 'WS24_water', 'WS24_water4', 'WS24_acid', 'WS24_base', 'WS24_boiling']
task_types : ['regression', 'classification', 'classification', 'classification_4', 'classification', 'classification', 'classification']
dl_sampler : random
loss_aggregation : fixed_weight_sum
model_cfg : att_cgcnn
max_graph_len : 200
reconstruct : False
task_cfg : tsd_ssd_ws24
pruning : False
optuna_name : optuna
dataset_cls : <class 'CGCNN_MT.datamodule.dataset.LoadGraphData'>
orig_extra_fea_len : 6
orig_atom_fea_len : 92
nbr_fea_len : 41
model : CrystalGraphConvNet(
  (embedding_atom): Linear(in_features=92, out_features=176, bias=True)
  (embedding_atom_norm): LayerNorm((176,), eps=1e-05, elementwise_affine=True)
  (convs): ModuleList(
    (0-8): 9 x ConvLayer(
      (fc_full): Linear(in_features=393, out_features=352, bias=True)
      (sigmoid): Sigmoid()
      (softplus1): Softplus(beta=1.0, threshold=20.0)
      (bn1): BatchNorm1d(352, eps=1e-05, momentum=0.1, affine=True, track_running_stats=True)
      (bn2): BatchNorm1d(176, eps=1e-05, momentum=0.1, affine=True, track_running_stats=True)
      (softplus2): Softplus(beta=1.0, threshold=20.0)
    )
  )
  (embedding_extra): Linear(in_features=6, out_features=32, bias=True)
  (embedding_extra_norm): BatchNorm1d(32, eps=1e-05, momentum=0.1, affine=True, track_running_stats=True)
  (embedding_extra_softplus): Softplus(beta=1.0, threshold=20.0)
  (conv_to_fc): Linear(in_features=208, out_features=16, bias=True)
  (conv_to_fc_norm): BatchNorm1d(16, eps=1e-05, momentum=0.1, affine=True, track_running_stats=True)
  (conv_to_fc_softplus): Softplus(beta=1.0, threshold=20.0)
  (dropout): Dropout(p=0.45, inplace=False)
  (fcs): ModuleList(
    (0-1): 2 x Linear(in_features=16, out_features=16, bias=True)
  )
  (norms): ModuleList(
    (0-1): 2 x BatchNorm1d(16, eps=1e-05, momentum=0.1, affine=True, track_running_stats=True)
  )
  (softpluses): ModuleList(
    (0-1): 2 x Softplus(beta=1.0, threshold=20.0)
  )
  (fc_outs): ModuleList(
    (0): OutputLayer(
      (fc): Linear(in_features=16, out_features=1, bias=True)
    )
    (1-2): 2 x OutputLayer(
      (fc): Sequential(
        (0): Linear(in_features=16, out_features=2, bias=True)
        (1): LogSoftmax(dim=1)
      )
    )
    (3): OutputLayer(
      (fc): Sequential(
        (0): Linear(in_features=16, out_features=4, bias=True)
        (1): LogSoftmax(dim=1)
      )
    )
    (4-6): 3 x OutputLayer(
      (fc): Sequential(
        (0): Linear(in_features=16, out_features=2, bias=True)
        (1): LogSoftmax(dim=1)
      )
    )
  )
  (task_norms): ModuleList(
    (0-6): 7 x LayerNorm((16,), eps=1e-05, elementwise_affine=True)
  )
  (task_attentions): ModuleList(
    (0-6): 7 x SelfAttention(
      (query): Linear(in_features=16, out_features=16, bias=True)
      (key): Linear(in_features=16, out_features=16, bias=True)
      (value): Linear(in_features=16, out_features=16, bias=True)
      (softmax): Softmax(dim=-1)
    )
  )
)
normalizers : [<CGCNN_MT.datamodule.data_interface.Normalizer object at 0x7a8f884751f0>, <CGCNN_MT.datamodule.data_interface.Normalizer object at 0x7a8f89144340>, <CGCNN_MT.datamodule.data_interface.Normalizer object at 0x7a8f891448e0>, <CGCNN_MT.datamodule.data_interface.Normalizer object at 0x7a8f89144a60>, <CGCNN_MT.datamodule.data_interface.Normalizer object at 0x7a8f891445b0>, <CGCNN_MT.datamodule.data_interface.Normalizer object at 0x7a8f89144c40>, <CGCNN_MT.datamodule.data_interface.Normalizer object at 0x7a8f89144520>]
…
data_dir : ./data
tasks : ['TSD', 'SSD', 'WS24_water', 'WS24_water4', 'WS24_acid', 'WS24_base', 'WS24_boiling']
task_types : ['regression', 'classification', 'classification', 'classification_4', 'classification', 'classification', 'classification']
dl_sampler : random
loss_aggregation : fixed_weight_sum
model_cfg : att_cgcnn
max_graph_len : 200
reconstruct : False
task_cfg : tsd_ssd_ws24
pruning : False
optuna_name : optuna
dataset_cls : <class 'CGCNN_MT.datamodule.dataset.LoadGraphData'>
orig_extra_fea_len : 6
orig_atom_fea_len : 92
nbr_fea_len : 41
model : CrystalGraphConvNet(
  (embedding_atom): Linear(in_features=92, out_features=256, bias=True)
  (embedding_atom_norm): LayerNorm((256,), eps=1e-05, elementwise_affine=True)
  (convs): ModuleList(
    (0-5): 6 x ConvLayer(
      (fc_full): Linear(in_features=553, out_features=512, bias=True)
      (sigmoid): Sigmoid()
      (softplus1): Softplus(beta=1.0, threshold=20.0)
      (bn1): BatchNorm1d(512, eps=1e-05, momentum=0.1, affine=True, track_running_stats=True)
      (bn2): BatchNorm1d(256, eps=1e-05, momentum=0.1, affine=True, track_running_stats=True)
      (softplus2): Softplus(beta=1.0, threshold=20.0)
    )
  )
  (embedding_extra): Linear(in_features=6, out_features=4, bias=True)
  (embedding_extra_norm): BatchNorm1d(4, eps=1e-05, momentum=0.1, affine=True, track_running_stats=True)
  (embedding_extra_softplus): Softplus(beta=1.0, threshold=20.0)
  (conv_to_fc): Linear(in_features=260, out_features=96, bias=True)
  (conv_to_fc_norm): BatchNorm1d(96, eps=1e-05, momentum=0.1, affine=True, track_running_stats=True)
  (conv_to_fc_softplus): Softplus(beta=1.0, threshold=20.0)
  (dropout): Dropout(p=0.8, inplace=False)
  (fcs): ModuleList(
    (0-8): 9 x Linear(in_features=96, out_features=96, bias=True)
  )
  (norms): ModuleList(
    (0-8): 9 x BatchNorm1d(96, eps=1e-05, momentum=0.1, affine=True, track_running_stats=True)
  )
  (softpluses): ModuleList(
    (0-8): 9 x Softplus(beta=1.0, threshold=20.0)
  )
  (fc_outs): ModuleList(
    (0): OutputLayer(
      (fc): Linear(in_features=96, out_features=1, bias=True)
    )
    (1-2): 2 x OutputLayer(
      (fc): Sequential(
        (0): Linear(in_features=96, out_features=2, bias=True)
        (1): LogSoftmax(dim=1)
      )
    )
    (3): OutputLayer(
      (fc): Sequential(
        (0): Linear(in_features=96, out_features=4, bias=True)
        (1): LogSoftmax(dim=1)
      )
    )
    (4-6): 3 x OutputLayer(
      (fc): Sequential(
        (0): Linear(in_features=96, out_features=2, bias=True)
        (1): LogSoftmax(dim=1)
      )
    )
  )
  (task_norms): ModuleList(
    (0-6): 7 x LayerNorm((96,), eps=1e-05, elementwise_affine=True)
  )
  (task_attentions): ModuleList(
    (0-6): 7 x SelfAttention(
      (query): Linear(in_features=96, out_features=96, bias=True)
      (key): Linear(in_features=96, out_features=96, bias=True)
      (value): Linear(in_features=96, out_features=96, bias=True)
      (softmax): Softmax(dim=-1)
    )
  )
)
normalizers : [<CGCNN_MT.datamodule.data_interface.Normalizer object at 0x7a8fa0646f70>, <CGCNN_MT.datamodule.data_interface.Normalizer object at 0x7a8fa0646670>, <CGCNN_MT.datamodule.data_interface.Normalizer object at 0x7a8fa0646ee0>, <CGCNN_MT.datamodule.data_interface.Normalizer object at 0x7a8fa0646c40>, <CGCNN_MT.datamodule.data_interface.Normalizer object at 0x7a8fa0646460>, <CGCNN_MT.datamodule.data_interface.Normalizer object at 0x7a8fa0646580>, <CGCNN_MT.datamodule.data_interface.Normalizer object at 0x7a8fa0646790>]
…
data_dir : ./data
tasks : ['TSD', 'SSD', 'WS24_water', 'WS24_water4', 'WS24_acid', 'WS24_base', 'WS24_boiling']
task_types : ['regression', 'classification', 'classification', 'classification_4', 'classification', 'classification', 'classification']
dl_sampler : random
loss_aggregation : fixed_weight_sum
model_cfg : att_cgcnn
max_graph_len : 200
reconstruct : False
task_cfg : tsd_ssd_ws24
pruning : False
optuna_name : optuna
dataset_cls : <class 'CGCNN_MT.datamodule.dataset.LoadGraphData'>
orig_extra_fea_len : 6
orig_atom_fea_len : 92
nbr_fea_len : 41
model : CrystalGraphConvNet(
  (embedding_atom): Linear(in_features=92, out_features=240, bias=True)
  (embedding_atom_norm): LayerNorm((240,), eps=1e-05, elementwise_affine=True)
  (convs): ModuleList(
    (0-7): 8 x ConvLayer(
      (fc_full): Linear(in_features=521, out_features=480, bias=True)
      (sigmoid): Sigmoid()
      (softplus1): Softplus(beta=1.0, threshold=20.0)
      (bn1): BatchNorm1d(480, eps=1e-05, momentum=0.1, affine=True, track_running_stats=True)
      (bn2): BatchNorm1d(240, eps=1e-05, momentum=0.1, affine=True, track_running_stats=True)
      (softplus2): Softplus(beta=1.0, threshold=20.0)
    )
  )
  (embedding_extra): Linear(in_features=6, out_features=28, bias=True)
  (embedding_extra_norm): BatchNorm1d(28, eps=1e-05, momentum=0.1, affine=True, track_running_stats=True)
  (embedding_extra_softplus): Softplus(beta=1.0, threshold=20.0)
  (conv_to_fc): Linear(in_features=268, out_features=192, bias=True)
  (conv_to_fc_norm): BatchNorm1d(192, eps=1e-05, momentum=0.1, affine=True, track_running_stats=True)
  (conv_to_fc_softplus): Softplus(beta=1.0, threshold=20.0)
  (dropout): Dropout(p=0.0, inplace=False)
  (fcs): ModuleList(
    (0-8): 9 x Linear(in_features=192, out_features=192, bias=True)
  )
  (norms): ModuleList(
    (0-8): 9 x BatchNorm1d(192, eps=1e-05, momentum=0.1, affine=True, track_running_stats=True)
  )
  (softpluses): ModuleList(
    (0-8): 9 x Softplus(beta=1.0, threshold=20.0)
  )
  (fc_outs): ModuleList(
    (0): OutputLayer(
      (fc): Linear(in_features=192, out_features=1, bias=True)
    )
    (1-2): 2 x OutputLayer(
      (fc): Sequential(
        (0): Linear(in_features=192, out_features=2, bias=True)
        (1): LogSoftmax(dim=1)
      )
    )
    (3): OutputLayer(
      (fc): Sequential(
        (0): Linear(in_features=192, out_features=4, bias=True)
        (1): LogSoftmax(dim=1)
      )
    )
    (4-6): 3 x OutputLayer(
      (fc): Sequential(
        (0): Linear(in_features=192, out_features=2, bias=True)
        (1): LogSoftmax(dim=1)
      )
    )
  )
  (task_norms): ModuleList(
    (0-6): 7 x LayerNorm((192,), eps=1e-05, elementwise_affine=True)
  )
  (task_attentions): ModuleList(
    (0-6): 7 x SelfAttention(
      (query): Linear(in_features=192, out_features=192, bias=True)
      (key): Linear(in_features=192, out_features=192, bias=True)
      (value): Linear(in_features=192, out_features=192, bias=True)
      (softmax): Softmax(dim=-1)
    )
  )
)
normalizers : [<CGCNN_MT.datamodule.data_interface.Normalizer object at 0x7a8f92450c40>, <CGCNN_MT.datamodule.data_interface.Normalizer object at 0x7a8f92450af0>, <CGCNN_MT.datamodule.data_interface.Normalizer object at 0x7a8f92450070>, <CGCNN_MT.datamodule.data_interface.Normalizer object at 0x7a8f92450280>, <CGCNN_MT.datamodule.data_interface.Normalizer object at 0x7a8f92450580>, <CGCNN_MT.datamodule.data_interface.Normalizer object at 0x7a8f924504c0>, <CGCNN_MT.datamodule.data_interface.Normalizer object at 0x7a8f924507f0>]
…
data_dir : ./data
tasks : ['TSD', 'SSD', 'WS24_water', 'WS24_water4', 'WS24_acid', 'WS24_base', 'WS24_boiling']
task_types : ['regression', 'classification', 'classification', 'classification_4', 'classification', 'classification', 'classification']
dl_sampler : random
loss_aggregation : fixed_weight_sum
model_cfg : att_cgcnn
max_graph_len : 200
reconstruct : False
task_cfg : tsd_ssd_ws24
pruning : False
optuna_name : optuna
dataset_cls : <class 'CGCNN_MT.datamodule.dataset.LoadGraphData'>
orig_extra_fea_len : 6
orig_atom_fea_len : 92
nbr_fea_len : 41
model : CrystalGraphConvNet(
  (embedding_atom): Linear(in_features=92, out_features=144, bias=True)
  (embedding_atom_norm): LayerNorm((144,), eps=1e-05, elementwise_affine=True)
  (convs): ModuleList(
    (0-8): 9 x ConvLayer(
      (fc_full): Linear(in_features=329, out_features=288, bias=True)
      (sigmoid): Sigmoid()
      (softplus1): Softplus(beta=1.0, threshold=20.0)
      (bn1): BatchNorm1d(288, eps=1e-05, momentum=0.1, affine=True, track_running_stats=True)
      (bn2): BatchNorm1d(144, eps=1e-05, momentum=0.1, affine=True, track_running_stats=True)
      (softplus2): Softplus(beta=1.0, threshold=20.0)
    )
  )
  (embedding_extra): Linear(in_features=6, out_features=40, bias=True)
  (embedding_extra_norm): BatchNorm1d(40, eps=1e-05, momentum=0.1, affine=True, track_running_stats=True)
  (embedding_extra_softplus): Softplus(beta=1.0, threshold=20.0)
  (conv_to_fc): Linear(in_features=184, out_features=272, bias=True)
  (conv_to_fc_norm): BatchNorm1d(272, eps=1e-05, momentum=0.1, affine=True, track_running_stats=True)
  (conv_to_fc_softplus): Softplus(beta=1.0, threshold=20.0)
  (dropout): Dropout(p=0.4, inplace=False)
  (fcs): ModuleList(
    (0-2): 3 x Linear(in_features=272, out_features=272, bias=True)
  )
  (norms): ModuleList(
    (0-2): 3 x BatchNorm1d(272, eps=1e-05, momentum=0.1, affine=True, track_running_stats=True)
  )
  (softpluses): ModuleList(
    (0-2): 3 x Softplus(beta=1.0, threshold=20.0)
  )
  (fc_outs): ModuleList(
    (0): OutputLayer(
      (fc): Linear(in_features=272, out_features=1, bias=True)
    )
    (1-2): 2 x OutputLayer(
      (fc): Sequential(
        (0): Linear(in_features=272, out_features=2, bias=True)
        (1): LogSoftmax(dim=1)
      )
    )
    (3): OutputLayer(
      (fc): Sequential(
        (0): Linear(in_features=272, out_features=4, bias=True)
        (1): LogSoftmax(dim=1)
      )
    )
    (4-6): 3 x OutputLayer(
      (fc): Sequential(
        (0): Linear(in_features=272, out_features=2, bias=True)
        (1): LogSoftmax(dim=1)
      )
    )
  )
  (task_norms): ModuleList(
    (0-6): 7 x LayerNorm((272,), eps=1e-05, elementwise_affine=True)
  )
  (task_attentions): ModuleList(
    (0-6): 7 x SelfAttention(
      (query): Linear(in_features=272, out_features=272, bias=True)
      (key): Linear(in_features=272, out_features=272, bias=True)
      (value): Linear(in_features=272, out_features=272, bias=True)
      (softmax): Softmax(dim=-1)
    )
  )
)
normalizers : [<CGCNN_MT.datamodule.data_interface.Normalizer object at 0x7a8f926d0430>, <CGCNN_MT.datamodule.data_interface.Normalizer object at 0x7a8f926d0f40>, <CGCNN_MT.datamodule.data_interface.Normalizer object at 0x7a8f926d07f0>, <CGCNN_MT.datamodule.data_interface.Normalizer object at 0x7a8f926d0c10>, <CGCNN_MT.datamodule.data_interface.Normalizer object at 0x7a8f926d0130>, <CGCNN_MT.datamodule.data_interface.Normalizer object at 0x7a8f926d08b0>, <CGCNN_MT.datamodule.data_interface.Normalizer object at 0x7a8f926d0490>]
…
