…
data_dir : ./data
tasks : ['TSD', 'SSD', 'WS24_water', 'WS24_water4', 'WS24_acid', 'WS24_base', 'WS24_boiling']
task_types : ['regression', 'classification', 'classification', 'classification_4', 'classification', 'classification', 'classification']
dl_sampler : random
loss_aggregation : fixed_weight_sum
model_cfg : att_cgcnn
max_graph_len : 200
reconstruct : False
task_cfg : tsd_ssd_ws24
pruning : False
optuna_name : optuna
dataset_cls : <class 'CGCNN_MT.datamodule.dataset.LoadGraphData'>
orig_extra_fea_len : 6
orig_atom_fea_len : 92
nbr_fea_len : 41
model : CrystalGraphConvNet(
  (embedding_atom): Linear(in_features=92, out_features=272, bias=True)
  (embedding_atom_norm): LayerNorm((272,), eps=1e-05, elementwise_affine=True)
  (convs): ModuleList(
    (0-8): 9 x ConvLayer(
      (fc_full): Linear(in_features=585, out_features=544, bias=True)
      (sigmoid): Sigmoid()
      (softplus1): Softplus(beta=1.0, threshold=20.0)
      (bn1): BatchNorm1d(544, eps=1e-05, momentum=0.1, affine=True, track_running_stats=True)
      (bn2): BatchNorm1d(272, eps=1e-05, momentum=0.1, affine=True, track_running_stats=True)
      (softplus2): Softplus(beta=1.0, threshold=20.0)
    )
  )
  (embedding_extra): Linear(in_features=6, out_features=32, bias=True)
  (embedding_extra_norm): BatchNorm1d(32, eps=1e-05, momentum=0.1, affine=True, track_running_stats=True)
  (embedding_extra_softplus): Softplus(beta=1.0, threshold=20.0)
  (conv_to_fc): Linear(in_features=304, out_features=80, bias=True)
  (conv_to_fc_norm): BatchNorm1d(80, eps=1e-05, momentum=0.1, affine=True, track_running_stats=True)
  (conv_to_fc_softplus): Softplus(beta=1.0, threshold=20.0)
  (dropout): Dropout(p=0.65, inplace=False)
  (fcs): ModuleList(
    (0-5): 6 x Linear(in_features=80, out_features=80, bias=True)
  )
  (norms): ModuleList(
    (0-5): 6 x BatchNorm1d(80, eps=1e-05, momentum=0.1, affine=True, track_running_stats=True)
  )
  (softpluses): ModuleList(
    (0-5): 6 x Softplus(beta=1.0, threshold=20.0)
  )
  (fc_outs): ModuleList(
    (0): OutputLayer(
      (fc): Linear(in_features=80, out_features=1, bias=True)
    )
    (1-2): 2 x OutputLayer(
      (fc): Sequential(
        (0): Linear(in_features=80, out_features=2, bias=True)
        (1): LogSoftmax(dim=1)
      )
    )
    (3): OutputLayer(
      (fc): Sequential(
        (0): Linear(in_features=80, out_features=4, bias=True)
        (1): LogSoftmax(dim=1)
      )
    )
    (4-6): 3 x OutputLayer(
      (fc): Sequential(
        (0): Linear(in_features=80, out_features=2, bias=True)
        (1): LogSoftmax(dim=1)
      )
    )
  )
  (task_norms): ModuleList(
    (0-6): 7 x LayerNorm((80,), eps=1e-05, elementwise_affine=True)
  )
  (task_attentions): ModuleList(
    (0-6): 7 x SelfAttention(
      (query): Linear(in_features=80, out_features=80, bias=True)
      (key): Linear(in_features=80, out_features=80, bias=True)
      (value): Linear(in_features=80, out_features=80, bias=True)
      (softmax): Softmax(dim=-1)
    )
  )
)
normalizers : [<CGCNN_MT.datamodule.data_interface.Normalizer object at 0x7d01350610a0>, <CGCNN_MT.datamodule.data_interface.Normalizer object at 0x7d0135061be0>, <CGCNN_MT.datamodule.data_interface.Normalizer object at 0x7d01350617c0>, <CGCNN_MT.datamodule.data_interface.Normalizer object at 0x7d01350611c0>, <CGCNN_MT.datamodule.data_interface.Normalizer object at 0x7d0135061670>, <CGCNN_MT.datamodule.data_interface.Normalizer object at 0x7d0135061ca0>, <CGCNN_MT.datamodule.data_interface.Normalizer object at 0x7d0135061430>]
…
data_dir : ./data
tasks : ['TSD', 'SSD', 'WS24_water', 'WS24_water4', 'WS24_acid', 'WS24_base', 'WS24_boiling']
task_types : ['regression', 'classification', 'classification', 'classification_4', 'classification', 'classification', 'classification']
dl_sampler : random
loss_aggregation : fixed_weight_sum
model_cfg : att_cgcnn
max_graph_len : 200
reconstruct : False
task_cfg : tsd_ssd_ws24
pruning : False
optuna_name : optuna
dataset_cls : <class 'CGCNN_MT.datamodule.dataset.LoadGraphData'>
orig_extra_fea_len : 6
orig_atom_fea_len : 92
nbr_fea_len : 41
model : CrystalGraphConvNet(
  (embedding_atom): Linear(in_features=92, out_features=272, bias=True)
  (embedding_atom_norm): LayerNorm((272,), eps=1e-05, elementwise_affine=True)
  (convs): ModuleList(
    (0-8): 9 x ConvLayer(
      (fc_full): Linear(in_features=585, out_features=544, bias=True)
      (sigmoid): Sigmoid()
      (softplus1): Softplus(beta=1.0, threshold=20.0)
      (bn1): BatchNorm1d(544, eps=1e-05, momentum=0.1, affine=True, track_running_stats=True)
      (bn2): BatchNorm1d(272, eps=1e-05, momentum=0.1, affine=True, track_running_stats=True)
      (softplus2): Softplus(beta=1.0, threshold=20.0)
    )
  )
  (embedding_extra): Linear(in_features=6, out_features=32, bias=True)
  (embedding_extra_norm): BatchNorm1d(32, eps=1e-05, momentum=0.1, affine=True, track_running_stats=True)
  (embedding_extra_softplus): Softplus(beta=1.0, threshold=20.0)
  (conv_to_fc): Linear(in_features=304, out_features=64, bias=True)
  (conv_to_fc_norm): BatchNorm1d(64, eps=1e-05, momentum=0.1, affine=True, track_running_stats=True)
  (conv_to_fc_softplus): Softplus(beta=1.0, threshold=20.0)
  (dropout): Dropout(p=0.8, inplace=False)
  (fcs): ModuleList(
    (0-1): 2 x Linear(in_features=64, out_features=64, bias=True)
  )
  (norms): ModuleList(
    (0-1): 2 x BatchNorm1d(64, eps=1e-05, momentum=0.1, affine=True, track_running_stats=True)
  )
  (softpluses): ModuleList(
    (0-1): 2 x Softplus(beta=1.0, threshold=20.0)
  )
  (fc_outs): ModuleList(
    (0): OutputLayer(
      (fc): Linear(in_features=64, out_features=1, bias=True)
    )
    (1-2): 2 x OutputLayer(
      (fc): Sequential(
        (0): Linear(in_features=64, out_features=2, bias=True)
        (1): LogSoftmax(dim=1)
      )
    )
    (3): OutputLayer(
      (fc): Sequential(
        (0): Linear(in_features=64, out_features=4, bias=True)
        (1): LogSoftmax(dim=1)
      )
    )
    (4-6): 3 x OutputLayer(
      (fc): Sequential(
        (0): Linear(in_features=64, out_features=2, bias=True)
        (1): LogSoftmax(dim=1)
      )
    )
  )
  (task_norms): ModuleList(
    (0-6): 7 x LayerNorm((64,), eps=1e-05, elementwise_affine=True)
  )
  (task_attentions): ModuleList(
    (0-6): 7 x SelfAttention(
      (query): Linear(in_features=64, out_features=64, bias=True)
      (key): Linear(in_features=64, out_features=64, bias=True)
      (value): Linear(in_features=64, out_features=64, bias=True)
      (softmax): Softmax(dim=-1)
    )
  )
)
normalizers : [<CGCNN_MT.datamodule.data_interface.Normalizer object at 0x7d012c4a8bb0>, <CGCNN_MT.datamodule.data_interface.Normalizer object at 0x7d012c4a83a0>, <CGCNN_MT.datamodule.data_interface.Normalizer object at 0x7d012c4a8dc0>, <CGCNN_MT.datamodule.data_interface.Normalizer object at 0x7d012c4a83d0>, <CGCNN_MT.datamodule.data_interface.Normalizer object at 0x7d012c4a86d0>, <CGCNN_MT.datamodule.data_interface.Normalizer object at 0x7d0134a98b80>, <CGCNN_MT.datamodule.data_interface.Normalizer object at 0x7d0134a98190>]
…
data_dir : ./data
tasks : ['TSD', 'SSD', 'WS24_water', 'WS24_water4', 'WS24_acid', 'WS24_base', 'WS24_boiling']
task_types : ['regression', 'classification', 'classification', 'classification_4', 'classification', 'classification', 'classification']
dl_sampler : random
loss_aggregation : fixed_weight_sum
model_cfg : att_cgcnn
max_graph_len : 200
reconstruct : False
task_cfg : tsd_ssd_ws24
pruning : False
optuna_name : optuna
dataset_cls : <class 'CGCNN_MT.datamodule.dataset.LoadGraphData'>
orig_extra_fea_len : 6
orig_atom_fea_len : 92
nbr_fea_len : 41
model : CrystalGraphConvNet(
  (embedding_atom): Linear(in_features=92, out_features=192, bias=True)
  (embedding_atom_norm): LayerNorm((192,), eps=1e-05, elementwise_affine=True)
  (convs): ModuleList(
    (0-4): 5 x ConvLayer(
      (fc_full): Linear(in_features=425, out_features=384, bias=True)
      (sigmoid): Sigmoid()
      (softplus1): Softplus(beta=1.0, threshold=20.0)
      (bn1): BatchNorm1d(384, eps=1e-05, momentum=0.1, affine=True, track_running_stats=True)
      (bn2): BatchNorm1d(192, eps=1e-05, momentum=0.1, affine=True, track_running_stats=True)
      (softplus2): Softplus(beta=1.0, threshold=20.0)
    )
  )
  (embedding_extra): Linear(in_features=6, out_features=20, bias=True)
  (embedding_extra_norm): BatchNorm1d(20, eps=1e-05, momentum=0.1, affine=True, track_running_stats=True)
  (embedding_extra_softplus): Softplus(beta=1.0, threshold=20.0)
  (conv_to_fc): Linear(in_features=212, out_features=112, bias=True)
  (conv_to_fc_norm): BatchNorm1d(112, eps=1e-05, momentum=0.1, affine=True, track_running_stats=True)
  (conv_to_fc_softplus): Softplus(beta=1.0, threshold=20.0)
  (dropout): Dropout(p=0.6000000000000001, inplace=False)
  (fcs): ModuleList(
    (0): Linear(in_features=112, out_features=112, bias=True)
  )
  (norms): ModuleList(
    (0): BatchNorm1d(112, eps=1e-05, momentum=0.1, affine=True, track_running_stats=True)
  )
  (softpluses): ModuleList(
    (0): Softplus(beta=1.0, threshold=20.0)
  )
  (fc_outs): ModuleList(
    (0): OutputLayer(
      (fc): Linear(in_features=112, out_features=1, bias=True)
    )
    (1-2): 2 x OutputLayer(
      (fc): Sequential(
        (0): Linear(in_features=112, out_features=2, bias=True)
        (1): LogSoftmax(dim=1)
      )
    )
    (3): OutputLayer(
      (fc): Sequential(
        (0): Linear(in_features=112, out_features=4, bias=True)
        (1): LogSoftmax(dim=1)
      )
    )
    (4-6): 3 x OutputLayer(
      (fc): Sequential(
        (0): Linear(in_features=112, out_features=2, bias=True)
        (1): LogSoftmax(dim=1)
      )
    )
  )
  (task_norms): ModuleList(
    (0-6): 7 x LayerNorm((112,), eps=1e-05, elementwise_affine=True)
  )
  (task_attentions): ModuleList(
    (0-6): 7 x SelfAttention(
      (query): Linear(in_features=112, out_features=112, bias=True)
      (key): Linear(in_features=112, out_features=112, bias=True)
      (value): Linear(in_features=112, out_features=112, bias=True)
      (softmax): Softmax(dim=-1)
    )
  )
)
normalizers : [<CGCNN_MT.datamodule.data_interface.Normalizer object at 0x7d012cc3c3a0>, <CGCNN_MT.datamodule.data_interface.Normalizer object at 0x7d012cc3c310>, <CGCNN_MT.datamodule.data_interface.Normalizer object at 0x7d012cc3c940>, <CGCNN_MT.datamodule.data_interface.Normalizer object at 0x7d012cc3cb80>, <CGCNN_MT.datamodule.data_interface.Normalizer object at 0x7d012cc3c8e0>, <CGCNN_MT.datamodule.data_interface.Normalizer object at 0x7d012cc3c910>, <CGCNN_MT.datamodule.data_interface.Normalizer object at 0x7d012cc3ce20>]
…
data_dir : ./data
tasks : ['TSD', 'SSD', 'WS24_water', 'WS24_water4', 'WS24_acid', 'WS24_base', 'WS24_boiling']
task_types : ['regression', 'classification', 'classification', 'classification_4', 'classification', 'classification', 'classification']
dl_sampler : random
loss_aggregation : fixed_weight_sum
model_cfg : att_cgcnn
max_graph_len : 200
reconstruct : False
task_cfg : tsd_ssd_ws24
pruning : False
optuna_name : optuna
dataset_cls : <class 'CGCNN_MT.datamodule.dataset.LoadGraphData'>
orig_extra_fea_len : 6
orig_atom_fea_len : 92
nbr_fea_len : 41
model : CrystalGraphConvNet(
  (embedding_atom): Linear(in_features=92, out_features=256, bias=True)
  (embedding_atom_norm): LayerNorm((256,), eps=1e-05, elementwise_affine=True)
  (convs): ModuleList(
    (0-2): 3 x ConvLayer(
      (fc_full): Linear(in_features=553, out_features=512, bias=True)
      (sigmoid): Sigmoid()
      (softplus1): Softplus(beta=1.0, threshold=20.0)
      (bn1): BatchNorm1d(512, eps=1e-05, momentum=0.1, affine=True, track_running_stats=True)
      (bn2): BatchNorm1d(256, eps=1e-05, momentum=0.1, affine=True, track_running_stats=True)
      (softplus2): Softplus(beta=1.0, threshold=20.0)
    )
  )
  (embedding_extra): Linear(in_features=6, out_features=44, bias=True)
  (embedding_extra_norm): BatchNorm1d(44, eps=1e-05, momentum=0.1, affine=True, track_running_stats=True)
  (embedding_extra_softplus): Softplus(beta=1.0, threshold=20.0)
  (conv_to_fc): Linear(in_features=300, out_features=32, bias=True)
  (conv_to_fc_norm): BatchNorm1d(32, eps=1e-05, momentum=0.1, affine=True, track_running_stats=True)
  (conv_to_fc_softplus): Softplus(beta=1.0, threshold=20.0)
  (dropout): Dropout(p=0.5, inplace=False)
  (fcs): ModuleList(
    (0-4): 5 x Linear(in_features=32, out_features=32, bias=True)
  )
  (norms): ModuleList(
    (0-4): 5 x BatchNorm1d(32, eps=1e-05, momentum=0.1, affine=True, track_running_stats=True)
  )
  (softpluses): ModuleList(
    (0-4): 5 x Softplus(beta=1.0, threshold=20.0)
  )
  (fc_outs): ModuleList(
    (0): OutputLayer(
      (fc): Linear(in_features=32, out_features=1, bias=True)
    )
    (1-2): 2 x OutputLayer(
      (fc): Sequential(
        (0): Linear(in_features=32, out_features=2, bias=True)
        (1): LogSoftmax(dim=1)
      )
    )
    (3): OutputLayer(
      (fc): Sequential(
        (0): Linear(in_features=32, out_features=4, bias=True)
        (1): LogSoftmax(dim=1)
      )
    )
    (4-6): 3 x OutputLayer(
      (fc): Sequential(
        (0): Linear(in_features=32, out_features=2, bias=True)
        (1): LogSoftmax(dim=1)
      )
    )
  )
  (task_norms): ModuleList(
    (0-6): 7 x LayerNorm((32,), eps=1e-05, elementwise_affine=True)
  )
  (task_attentions): ModuleList(
    (0-6): 7 x SelfAttention(
      (query): Linear(in_features=32, out_features=32, bias=True)
      (key): Linear(in_features=32, out_features=32, bias=True)
      (value): Linear(in_features=32, out_features=32, bias=True)
      (softmax): Softmax(dim=-1)
    )
  )
)
normalizers : [<CGCNN_MT.datamodule.data_interface.Normalizer object at 0x7d012cc2b2b0>, <CGCNN_MT.datamodule.data_interface.Normalizer object at 0x7d012cc2b070>, <CGCNN_MT.datamodule.data_interface.Normalizer object at 0x7d012cc2b370>, <CGCNN_MT.datamodule.data_interface.Normalizer object at 0x7d012cc2b970>, <CGCNN_MT.datamodule.data_interface.Normalizer object at 0x7d012cc2bca0>, <CGCNN_MT.datamodule.data_interface.Normalizer object at 0x7d012cc2bb80>, <CGCNN_MT.datamodule.data_interface.Normalizer object at 0x7d012cc2ba60>]
…
